{"format": "layers-model", "generatedBy": "keras v2.2.4", "convertedBy": "TensorFlow.js Converter v3.1.0", "modelTopology": {"keras_version": "2.2.4", "backend": "tensorflow", "model_config": {"class_name": "Model", "config": {"name": "model_3", "layers": [{"name": "input_3", "class_name": "InputLayer", "config": {"batch_input_shape": [null, 256, 256, 3], "dtype": "float32", "sparse": false, "name": "input_3"}, "inbound_nodes": []}, {"name": "zero_padding2d_1", "class_name": "ZeroPadding2D", "config": {"name": "zero_padding2d_1", "trainable": true, "padding": [[3, 3], [3, 3]], "data_format": "channels_last"}, "inbound_nodes": [[["input_3", 0, 0, {}]]]}, {"name": "conv2d_11", "class_name": "Conv2D", "config": {"name": "conv2d_11", "trainable": true, "filters": 32, "kernel_size": [7, 7], "strides": [1, 1], "padding": "valid", "data_format": "channels_last", "dilation_rate": [1, 1], "activation": "linear", "use_bias": true, "kernel_initializer": {"class_name": "RandomNormal", "config": {"mean": 0.0, "stddev": 0.02, "seed": null}}, "bias_initializer": {"class_name": "Zeros", "config": {}}, "kernel_regularizer": null, "bias_regularizer": null, "activity_regularizer": null, "kernel_constraint": null, "bias_constraint": null}, "inbound_nodes": [[["zero_padding2d_1", 0, 0, {}]]]}, {"name": "batch_normalization_7", "class_name": "BatchNormalization", "config": {"name": "batch_normalization_7", "trainable": true, "axis": -1, "momentum": 0.99, "epsilon": 0.001, "center": true, "scale": true, "beta_initializer": {"class_name": "Zeros", "config": {}}, "gamma_initializer": {"class_name": "Ones", "config": {}}, "moving_mean_initializer": {"class_name": "Zeros", "config": {}}, "moving_variance_initializer": {"class_name": "Ones", "config": {}}, "beta_regularizer": null, "gamma_regularizer": null, "beta_constraint": null, "gamma_constraint": null}, "inbound_nodes": [[["conv2d_11", 0, 0, {}]]]}, {"name": "activation_1", "class_name": "Activation", "config": {"name": "activation_1", "trainable": true, "activation": "relu"}, "inbound_nodes": [[["batch_normalization_7", 0, 0, {}]]]}, {"name": "conv2d_12", "class_name": "Conv2D", "config": {"name": "conv2d_12", "trainable": true, "filters": 64, "kernel_size": [3, 3], "strides": [2, 2], "padding": "same", "data_format": "channels_last", "dilation_rate": [1, 1], "activation": "linear", "use_bias": true, "kernel_initializer": {"class_name": "RandomNormal", "config": {"mean": 0.0, "stddev": 0.02, "seed": null}}, "bias_initializer": {"class_name": "Zeros", "config": {}}, "kernel_regularizer": null, "bias_regularizer": null, "activity_regularizer": null, "kernel_constraint": null, "bias_constraint": null}, "inbound_nodes": [[["activation_1", 0, 0, {}]]]}, {"name": "batch_normalization_8", "class_name": "BatchNormalization", "config": {"name": "batch_normalization_8", "trainable": true, "axis": -1, "momentum": 0.99, "epsilon": 0.001, "center": true, "scale": true, "beta_initializer": {"class_name": "Zeros", "config": {}}, "gamma_initializer": {"class_name": "Ones", "config": {}}, "moving_mean_initializer": {"class_name": "Zeros", "config": {}}, "moving_variance_initializer": {"class_name": "Ones", "config": {}}, "beta_regularizer": null, "gamma_regularizer": null, "beta_constraint": null, "gamma_constraint": null}, "inbound_nodes": [[["conv2d_12", 0, 0, {}]]]}, {"name": "activation_2", "class_name": "Activation", "config": {"name": "activation_2", "trainable": true, "activation": "relu"}, "inbound_nodes": [[["batch_normalization_8", 0, 0, {}]]]}, {"name": "conv2d_13", "class_name": "Conv2D", "config": {"name": "conv2d_13", "trainable": true, "filters": 128, "kernel_size": [3, 3], "strides": [2, 2], "padding": "same", "data_format": "channels_last", "dilation_rate": [1, 1], "activation": "linear", "use_bias": true, "kernel_initializer": {"class_name": "RandomNormal", "config": {"mean": 0.0, "stddev": 0.02, "seed": null}}, "bias_initializer": {"class_name": "Zeros", "config": {}}, "kernel_regularizer": null, "bias_regularizer": null, "activity_regularizer": null, "kernel_constraint": null, "bias_constraint": null}, "inbound_nodes": [[["activation_2", 0, 0, {}]]]}, {"name": "batch_normalization_9", "class_name": "BatchNormalization", "config": {"name": "batch_normalization_9", "trainable": true, "axis": -1, "momentum": 0.99, "epsilon": 0.001, "center": true, "scale": true, "beta_initializer": {"class_name": "Zeros", "config": {}}, "gamma_initializer": {"class_name": "Ones", "config": {}}, "moving_mean_initializer": {"class_name": "Zeros", "config": {}}, "moving_variance_initializer": {"class_name": "Ones", "config": {}}, "beta_regularizer": null, "gamma_regularizer": null, "beta_constraint": null, "gamma_constraint": null}, "inbound_nodes": [[["conv2d_13", 0, 0, {}]]]}, {"name": "activation_3", "class_name": "Activation", "config": {"name": "activation_3", "trainable": true, "activation": "relu"}, "inbound_nodes": [[["batch_normalization_9", 0, 0, {}]]]}, {"name": "zero_padding2d_2", "class_name": "ZeroPadding2D", "config": {"name": "zero_padding2d_2", "trainable": true, "padding": [[1, 1], [1, 1]], "data_format": "channels_last"}, "inbound_nodes": [[["activation_3", 0, 0, {}]]]}, {"name": "conv2d_14", "class_name": "Conv2D", "config": {"name": "conv2d_14", "trainable": true, "filters": 128, "kernel_size": [3, 3], "strides": [1, 1], "padding": "valid", "data_format": "channels_last", "dilation_rate": [1, 1], "activation": "linear", "use_bias": true, "kernel_initializer": {"class_name": "RandomNormal", "config": {"mean": 0.0, "stddev": 0.02, "seed": null}}, "bias_initializer": {"class_name": "Zeros", "config": {}}, "kernel_regularizer": null, "bias_regularizer": null, "activity_regularizer": null, "kernel_constraint": null, "bias_constraint": null}, "inbound_nodes": [[["zero_padding2d_2", 0, 0, {}]]]}, {"name": "batch_normalization_10", "class_name": "BatchNormalization", "config": {"name": "batch_normalization_10", "trainable": true, "axis": -1, "momentum": 0.99, "epsilon": 0.001, "center": true, "scale": true, "beta_initializer": {"class_name": "Zeros", "config": {}}, "gamma_initializer": {"class_name": "Ones", "config": {}}, "moving_mean_initializer": {"class_name": "Zeros", "config": {}}, "moving_variance_initializer": {"class_name": "Ones", "config": {}}, "beta_regularizer": null, "gamma_regularizer": null, "beta_constraint": null, "gamma_constraint": null}, "inbound_nodes": [[["conv2d_14", 0, 0, {}]]]}, {"name": "activation_4", "class_name": "Activation", "config": {"name": "activation_4", "trainable": true, "activation": "relu"}, "inbound_nodes": [[["batch_normalization_10", 0, 0, {}]]]}, {"name": "zero_padding2d_3", "class_name": "ZeroPadding2D", "config": {"name": "zero_padding2d_3", "trainable": true, "padding": [[1, 1], [1, 1]], "data_format": "channels_last"}, "inbound_nodes": [[["activation_4", 0, 0, {}]]]}, {"name": "conv2d_15", "class_name": "Conv2D", "config": {"name": "conv2d_15", "trainable": true, "filters": 128, "kernel_size": [3, 3], "strides": [1, 1], "padding": "valid", "data_format": "channels_last", "dilation_rate": [1, 1], "activation": "linear", "use_bias": true, "kernel_initializer": {"class_name": "RandomNormal", "config": {"mean": 0.0, "stddev": 0.02, "seed": null}}, "bias_initializer": {"class_name": "Zeros", "config": {}}, "kernel_regularizer": null, "bias_regularizer": null, "activity_regularizer": null, "kernel_constraint": null, "bias_constraint": null}, "inbound_nodes": [[["zero_padding2d_3", 0, 0, {}]]]}, {"name": "batch_normalization_11", "class_name": "BatchNormalization", "config": {"name": "batch_normalization_11", "trainable": true, "axis": -1, "momentum": 0.99, "epsilon": 0.001, "center": true, "scale": true, "beta_initializer": {"class_name": "Zeros", "config": {}}, "gamma_initializer": {"class_name": "Ones", "config": {}}, "moving_mean_initializer": {"class_name": "Zeros", "config": {}}, "moving_variance_initializer": {"class_name": "Ones", "config": {}}, "beta_regularizer": null, "gamma_regularizer": null, "beta_constraint": null, "gamma_constraint": null}, "inbound_nodes": [[["conv2d_15", 0, 0, {}]]]}, {"name": "add_1", "class_name": "Add", "config": {"name": "add_1", "trainable": true}, "inbound_nodes": [[["activation_3", 0, 0, {}], ["batch_normalization_11", 0, 0, {}]]]}, {"name": "zero_padding2d_4", "class_name": "ZeroPadding2D", "config": {"name": "zero_padding2d_4", "trainable": true, "padding": [[1, 1], [1, 1]], "data_format": "channels_last"}, "inbound_nodes": [[["add_1", 0, 0, {}]]]}, {"name": "conv2d_16", "class_name": "Conv2D", "config": {"name": "conv2d_16", "trainable": true, "filters": 128, "kernel_size": [3, 3], "strides": [1, 1], "padding": "valid", "data_format": "channels_last", "dilation_rate": [1, 1], "activation": "linear", "use_bias": true, "kernel_initializer": {"class_name": "RandomNormal", "config": {"mean": 0.0, "stddev": 0.02, "seed": null}}, "bias_initializer": {"class_name": "Zeros", "config": {}}, "kernel_regularizer": null, "bias_regularizer": null, "activity_regularizer": null, "kernel_constraint": null, "bias_constraint": null}, "inbound_nodes": [[["zero_padding2d_4", 0, 0, {}]]]}, {"name": "batch_normalization_12", "class_name": "BatchNormalization", "config": {"name": "batch_normalization_12", "trainable": true, "axis": -1, "momentum": 0.99, "epsilon": 0.001, "center": true, "scale": true, "beta_initializer": {"class_name": "Zeros", "config": {}}, "gamma_initializer": {"class_name": "Ones", "config": {}}, "moving_mean_initializer": {"class_name": "Zeros", "config": {}}, "moving_variance_initializer": {"class_name": "Ones", "config": {}}, "beta_regularizer": null, "gamma_regularizer": null, "beta_constraint": null, "gamma_constraint": null}, "inbound_nodes": [[["conv2d_16", 0, 0, {}]]]}, {"name": "activation_5", "class_name": "Activation", "config": {"name": "activation_5", "trainable": true, "activation": "relu"}, "inbound_nodes": [[["batch_normalization_12", 0, 0, {}]]]}, {"name": "zero_padding2d_5", "class_name": "ZeroPadding2D", "config": {"name": "zero_padding2d_5", "trainable": true, "padding": [[1, 1], [1, 1]], "data_format": "channels_last"}, "inbound_nodes": [[["activation_5", 0, 0, {}]]]}, {"name": "conv2d_17", "class_name": "Conv2D", "config": {"name": "conv2d_17", "trainable": true, "filters": 128, "kernel_size": [3, 3], "strides": [1, 1], "padding": "valid", "data_format": "channels_last", "dilation_rate": [1, 1], "activation": "linear", "use_bias": true, "kernel_initializer": {"class_name": "RandomNormal", "config": {"mean": 0.0, "stddev": 0.02, "seed": null}}, "bias_initializer": {"class_name": "Zeros", "config": {}}, "kernel_regularizer": null, "bias_regularizer": null, "activity_regularizer": null, "kernel_constraint": null, "bias_constraint": null}, "inbound_nodes": [[["zero_padding2d_5", 0, 0, {}]]]}, {"name": "batch_normalization_13", "class_name": "BatchNormalization", "config": {"name": "batch_normalization_13", "trainable": true, "axis": -1, "momentum": 0.99, "epsilon": 0.001, "center": true, "scale": true, "beta_initializer": {"class_name": "Zeros", "config": {}}, "gamma_initializer": {"class_name": "Ones", "config": {}}, "moving_mean_initializer": {"class_name": "Zeros", "config": {}}, "moving_variance_initializer": {"class_name": "Ones", "config": {}}, "beta_regularizer": null, "gamma_regularizer": null, "beta_constraint": null, "gamma_constraint": null}, "inbound_nodes": [[["conv2d_17", 0, 0, {}]]]}, {"name": "add_2", "class_name": "Add", "config": {"name": "add_2", "trainable": true}, "inbound_nodes": [[["add_1", 0, 0, {}], ["batch_normalization_13", 0, 0, {}]]]}, {"name": "zero_padding2d_6", "class_name": "ZeroPadding2D", "config": {"name": "zero_padding2d_6", "trainable": true, "padding": [[1, 1], [1, 1]], "data_format": "channels_last"}, "inbound_nodes": [[["add_2", 0, 0, {}]]]}, {"name": "conv2d_18", "class_name": "Conv2D", "config": {"name": "conv2d_18", "trainable": true, "filters": 128, "kernel_size": [3, 3], "strides": [1, 1], "padding": "valid", "data_format": "channels_last", "dilation_rate": [1, 1], "activation": "linear", "use_bias": true, "kernel_initializer": {"class_name": "RandomNormal", "config": {"mean": 0.0, "stddev": 0.02, "seed": null}}, "bias_initializer": {"class_name": "Zeros", "config": {}}, "kernel_regularizer": null, "bias_regularizer": null, "activity_regularizer": null, "kernel_constraint": null, "bias_constraint": null}, "inbound_nodes": [[["zero_padding2d_6", 0, 0, {}]]]}, {"name": "batch_normalization_14", "class_name": "BatchNormalization", "config": {"name": "batch_normalization_14", "trainable": true, "axis": -1, "momentum": 0.99, "epsilon": 0.001, "center": true, "scale": true, "beta_initializer": {"class_name": "Zeros", "config": {}}, "gamma_initializer": {"class_name": "Ones", "config": {}}, "moving_mean_initializer": {"class_name": "Zeros", "config": {}}, "moving_variance_initializer": {"class_name": "Ones", "config": {}}, "beta_regularizer": null, "gamma_regularizer": null, "beta_constraint": null, "gamma_constraint": null}, "inbound_nodes": [[["conv2d_18", 0, 0, {}]]]}, {"name": "activation_6", "class_name": "Activation", "config": {"name": "activation_6", "trainable": true, "activation": "relu"}, "inbound_nodes": [[["batch_normalization_14", 0, 0, {}]]]}, {"name": "zero_padding2d_7", "class_name": "ZeroPadding2D", "config": {"name": "zero_padding2d_7", "trainable": true, "padding": [[1, 1], [1, 1]], "data_format": "channels_last"}, "inbound_nodes": [[["activation_6", 0, 0, {}]]]}, {"name": "conv2d_19", "class_name": "Conv2D", "config": {"name": "conv2d_19", "trainable": true, "filters": 128, "kernel_size": [3, 3], "strides": [1, 1], "padding": "valid", "data_format": "channels_last", "dilation_rate": [1, 1], "activation": "linear", "use_bias": true, "kernel_initializer": {"class_name": "RandomNormal", "config": {"mean": 0.0, "stddev": 0.02, "seed": null}}, "bias_initializer": {"class_name": "Zeros", "config": {}}, "kernel_regularizer": null, "bias_regularizer": null, "activity_regularizer": null, "kernel_constraint": null, "bias_constraint": null}, "inbound_nodes": [[["zero_padding2d_7", 0, 0, {}]]]}, {"name": "batch_normalization_15", "class_name": "BatchNormalization", "config": {"name": "batch_normalization_15", "trainable": true, "axis": -1, "momentum": 0.99, "epsilon": 0.001, "center": true, "scale": true, "beta_initializer": {"class_name": "Zeros", "config": {}}, "gamma_initializer": {"class_name": "Ones", "config": {}}, "moving_mean_initializer": {"class_name": "Zeros", "config": {}}, "moving_variance_initializer": {"class_name": "Ones", "config": {}}, "beta_regularizer": null, "gamma_regularizer": null, "beta_constraint": null, "gamma_constraint": null}, "inbound_nodes": [[["conv2d_19", 0, 0, {}]]]}, {"name": "add_3", "class_name": "Add", "config": {"name": "add_3", "trainable": true}, "inbound_nodes": [[["add_2", 0, 0, {}], ["batch_normalization_15", 0, 0, {}]]]}, {"name": "zero_padding2d_8", "class_name": "ZeroPadding2D", "config": {"name": "zero_padding2d_8", "trainable": true, "padding": [[1, 1], [1, 1]], "data_format": "channels_last"}, "inbound_nodes": [[["add_3", 0, 0, {}]]]}, {"name": "conv2d_20", "class_name": "Conv2D", "config": {"name": "conv2d_20", "trainable": true, "filters": 128, "kernel_size": [3, 3], "strides": [1, 1], "padding": "valid", "data_format": "channels_last", "dilation_rate": [1, 1], "activation": "linear", "use_bias": true, "kernel_initializer": {"class_name": "RandomNormal", "config": {"mean": 0.0, "stddev": 0.02, "seed": null}}, "bias_initializer": {"class_name": "Zeros", "config": {}}, "kernel_regularizer": null, "bias_regularizer": null, "activity_regularizer": null, "kernel_constraint": null, "bias_constraint": null}, "inbound_nodes": [[["zero_padding2d_8", 0, 0, {}]]]}, {"name": "batch_normalization_16", "class_name": "BatchNormalization", "config": {"name": "batch_normalization_16", "trainable": true, "axis": -1, "momentum": 0.99, "epsilon": 0.001, "center": true, "scale": true, "beta_initializer": {"class_name": "Zeros", "config": {}}, "gamma_initializer": {"class_name": "Ones", "config": {}}, "moving_mean_initializer": {"class_name": "Zeros", "config": {}}, "moving_variance_initializer": {"class_name": "Ones", "config": {}}, "beta_regularizer": null, "gamma_regularizer": null, "beta_constraint": null, "gamma_constraint": null}, "inbound_nodes": [[["conv2d_20", 0, 0, {}]]]}, {"name": "activation_7", "class_name": "Activation", "config": {"name": "activation_7", "trainable": true, "activation": "relu"}, "inbound_nodes": [[["batch_normalization_16", 0, 0, {}]]]}, {"name": "zero_padding2d_9", "class_name": "ZeroPadding2D", "config": {"name": "zero_padding2d_9", "trainable": true, "padding": [[1, 1], [1, 1]], "data_format": "channels_last"}, "inbound_nodes": [[["activation_7", 0, 0, {}]]]}, {"name": "conv2d_21", "class_name": "Conv2D", "config": {"name": "conv2d_21", "trainable": true, "filters": 128, "kernel_size": [3, 3], "strides": [1, 1], "padding": "valid", "data_format": "channels_last", "dilation_rate": [1, 1], "activation": "linear", "use_bias": true, "kernel_initializer": {"class_name": "RandomNormal", "config": {"mean": 0.0, "stddev": 0.02, "seed": null}}, "bias_initializer": {"class_name": "Zeros", "config": {}}, "kernel_regularizer": null, "bias_regularizer": null, "activity_regularizer": null, "kernel_constraint": null, "bias_constraint": null}, "inbound_nodes": [[["zero_padding2d_9", 0, 0, {}]]]}, {"name": "batch_normalization_17", "class_name": "BatchNormalization", "config": {"name": "batch_normalization_17", "trainable": true, "axis": -1, "momentum": 0.99, "epsilon": 0.001, "center": true, "scale": true, "beta_initializer": {"class_name": "Zeros", "config": {}}, "gamma_initializer": {"class_name": "Ones", "config": {}}, "moving_mean_initializer": {"class_name": "Zeros", "config": {}}, "moving_variance_initializer": {"class_name": "Ones", "config": {}}, "beta_regularizer": null, "gamma_regularizer": null, "beta_constraint": null, "gamma_constraint": null}, "inbound_nodes": [[["conv2d_21", 0, 0, {}]]]}, {"name": "add_4", "class_name": "Add", "config": {"name": "add_4", "trainable": true}, "inbound_nodes": [[["add_3", 0, 0, {}], ["batch_normalization_17", 0, 0, {}]]]}, {"name": "zero_padding2d_10", "class_name": "ZeroPadding2D", "config": {"name": "zero_padding2d_10", "trainable": true, "padding": [[1, 1], [1, 1]], "data_format": "channels_last"}, "inbound_nodes": [[["add_4", 0, 0, {}]]]}, {"name": "conv2d_22", "class_name": "Conv2D", "config": {"name": "conv2d_22", "trainable": true, "filters": 128, "kernel_size": [3, 3], "strides": [1, 1], "padding": "valid", "data_format": "channels_last", "dilation_rate": [1, 1], "activation": "linear", "use_bias": true, "kernel_initializer": {"class_name": "RandomNormal", "config": {"mean": 0.0, "stddev": 0.02, "seed": null}}, "bias_initializer": {"class_name": "Zeros", "config": {}}, "kernel_regularizer": null, "bias_regularizer": null, "activity_regularizer": null, "kernel_constraint": null, "bias_constraint": null}, "inbound_nodes": [[["zero_padding2d_10", 0, 0, {}]]]}, {"name": "batch_normalization_18", "class_name": "BatchNormalization", "config": {"name": "batch_normalization_18", "trainable": true, "axis": -1, "momentum": 0.99, "epsilon": 0.001, "center": true, "scale": true, "beta_initializer": {"class_name": "Zeros", "config": {}}, "gamma_initializer": {"class_name": "Ones", "config": {}}, "moving_mean_initializer": {"class_name": "Zeros", "config": {}}, "moving_variance_initializer": {"class_name": "Ones", "config": {}}, "beta_regularizer": null, "gamma_regularizer": null, "beta_constraint": null, "gamma_constraint": null}, "inbound_nodes": [[["conv2d_22", 0, 0, {}]]]}, {"name": "activation_8", "class_name": "Activation", "config": {"name": "activation_8", "trainable": true, "activation": "relu"}, "inbound_nodes": [[["batch_normalization_18", 0, 0, {}]]]}, {"name": "zero_padding2d_11", "class_name": "ZeroPadding2D", "config": {"name": "zero_padding2d_11", "trainable": true, "padding": [[1, 1], [1, 1]], "data_format": "channels_last"}, "inbound_nodes": [[["activation_8", 0, 0, {}]]]}, {"name": "conv2d_23", "class_name": "Conv2D", "config": {"name": "conv2d_23", "trainable": true, "filters": 128, "kernel_size": [3, 3], "strides": [1, 1], "padding": "valid", "data_format": "channels_last", "dilation_rate": [1, 1], "activation": "linear", "use_bias": true, "kernel_initializer": {"class_name": "RandomNormal", "config": {"mean": 0.0, "stddev": 0.02, "seed": null}}, "bias_initializer": {"class_name": "Zeros", "config": {}}, "kernel_regularizer": null, "bias_regularizer": null, "activity_regularizer": null, "kernel_constraint": null, "bias_constraint": null}, "inbound_nodes": [[["zero_padding2d_11", 0, 0, {}]]]}, {"name": "batch_normalization_19", "class_name": "BatchNormalization", "config": {"name": "batch_normalization_19", "trainable": true, "axis": -1, "momentum": 0.99, "epsilon": 0.001, "center": true, "scale": true, "beta_initializer": {"class_name": "Zeros", "config": {}}, "gamma_initializer": {"class_name": "Ones", "config": {}}, "moving_mean_initializer": {"class_name": "Zeros", "config": {}}, "moving_variance_initializer": {"class_name": "Ones", "config": {}}, "beta_regularizer": null, "gamma_regularizer": null, "beta_constraint": null, "gamma_constraint": null}, "inbound_nodes": [[["conv2d_23", 0, 0, {}]]]}, {"name": "add_5", "class_name": "Add", "config": {"name": "add_5", "trainable": true}, "inbound_nodes": [[["add_4", 0, 0, {}], ["batch_normalization_19", 0, 0, {}]]]}, {"name": "zero_padding2d_12", "class_name": "ZeroPadding2D", "config": {"name": "zero_padding2d_12", "trainable": true, "padding": [[1, 1], [1, 1]], "data_format": "channels_last"}, "inbound_nodes": [[["add_5", 0, 0, {}]]]}, {"name": "conv2d_24", "class_name": "Conv2D", "config": {"name": "conv2d_24", "trainable": true, "filters": 128, "kernel_size": [3, 3], "strides": [1, 1], "padding": "valid", "data_format": "channels_last", "dilation_rate": [1, 1], "activation": "linear", "use_bias": true, "kernel_initializer": {"class_name": "RandomNormal", "config": {"mean": 0.0, "stddev": 0.02, "seed": null}}, "bias_initializer": {"class_name": "Zeros", "config": {}}, "kernel_regularizer": null, "bias_regularizer": null, "activity_regularizer": null, "kernel_constraint": null, "bias_constraint": null}, "inbound_nodes": [[["zero_padding2d_12", 0, 0, {}]]]}, {"name": "batch_normalization_20", "class_name": "BatchNormalization", "config": {"name": "batch_normalization_20", "trainable": true, "axis": -1, "momentum": 0.99, "epsilon": 0.001, "center": true, "scale": true, "beta_initializer": {"class_name": "Zeros", "config": {}}, "gamma_initializer": {"class_name": "Ones", "config": {}}, "moving_mean_initializer": {"class_name": "Zeros", "config": {}}, "moving_variance_initializer": {"class_name": "Ones", "config": {}}, "beta_regularizer": null, "gamma_regularizer": null, "beta_constraint": null, "gamma_constraint": null}, "inbound_nodes": [[["conv2d_24", 0, 0, {}]]]}, {"name": "activation_9", "class_name": "Activation", "config": {"name": "activation_9", "trainable": true, "activation": "relu"}, "inbound_nodes": [[["batch_normalization_20", 0, 0, {}]]]}, {"name": "zero_padding2d_13", "class_name": "ZeroPadding2D", "config": {"name": "zero_padding2d_13", "trainable": true, "padding": [[1, 1], [1, 1]], "data_format": "channels_last"}, "inbound_nodes": [[["activation_9", 0, 0, {}]]]}, {"name": "conv2d_25", "class_name": "Conv2D", "config": {"name": "conv2d_25", "trainable": true, "filters": 128, "kernel_size": [3, 3], "strides": [1, 1], "padding": "valid", "data_format": "channels_last", "dilation_rate": [1, 1], "activation": "linear", "use_bias": true, "kernel_initializer": {"class_name": "RandomNormal", "config": {"mean": 0.0, "stddev": 0.02, "seed": null}}, "bias_initializer": {"class_name": "Zeros", "config": {}}, "kernel_regularizer": null, "bias_regularizer": null, "activity_regularizer": null, "kernel_constraint": null, "bias_constraint": null}, "inbound_nodes": [[["zero_padding2d_13", 0, 0, {}]]]}, {"name": "batch_normalization_21", "class_name": "BatchNormalization", "config": {"name": "batch_normalization_21", "trainable": true, "axis": -1, "momentum": 0.99, "epsilon": 0.001, "center": true, "scale": true, "beta_initializer": {"class_name": "Zeros", "config": {}}, "gamma_initializer": {"class_name": "Ones", "config": {}}, "moving_mean_initializer": {"class_name": "Zeros", "config": {}}, "moving_variance_initializer": {"class_name": "Ones", "config": {}}, "beta_regularizer": null, "gamma_regularizer": null, "beta_constraint": null, "gamma_constraint": null}, "inbound_nodes": [[["conv2d_25", 0, 0, {}]]]}, {"name": "add_6", "class_name": "Add", "config": {"name": "add_6", "trainable": true}, "inbound_nodes": [[["add_5", 0, 0, {}], ["batch_normalization_21", 0, 0, {}]]]}, {"name": "zero_padding2d_14", "class_name": "ZeroPadding2D", "config": {"name": "zero_padding2d_14", "trainable": true, "padding": [[1, 1], [1, 1]], "data_format": "channels_last"}, "inbound_nodes": [[["add_6", 0, 0, {}]]]}, {"name": "conv2d_26", "class_name": "Conv2D", "config": {"name": "conv2d_26", "trainable": true, "filters": 128, "kernel_size": [3, 3], "strides": [1, 1], "padding": "valid", "data_format": "channels_last", "dilation_rate": [1, 1], "activation": "linear", "use_bias": true, "kernel_initializer": {"class_name": "RandomNormal", "config": {"mean": 0.0, "stddev": 0.02, "seed": null}}, "bias_initializer": {"class_name": "Zeros", "config": {}}, "kernel_regularizer": null, "bias_regularizer": null, "activity_regularizer": null, "kernel_constraint": null, "bias_constraint": null}, "inbound_nodes": [[["zero_padding2d_14", 0, 0, {}]]]}, {"name": "batch_normalization_22", "class_name": "BatchNormalization", "config": {"name": "batch_normalization_22", "trainable": true, "axis": -1, "momentum": 0.99, "epsilon": 0.001, "center": true, "scale": true, "beta_initializer": {"class_name": "Zeros", "config": {}}, "gamma_initializer": {"class_name": "Ones", "config": {}}, "moving_mean_initializer": {"class_name": "Zeros", "config": {}}, "moving_variance_initializer": {"class_name": "Ones", "config": {}}, "beta_regularizer": null, "gamma_regularizer": null, "beta_constraint": null, "gamma_constraint": null}, "inbound_nodes": [[["conv2d_26", 0, 0, {}]]]}, {"name": "activation_10", "class_name": "Activation", "config": {"name": "activation_10", "trainable": true, "activation": "relu"}, "inbound_nodes": [[["batch_normalization_22", 0, 0, {}]]]}, {"name": "zero_padding2d_15", "class_name": "ZeroPadding2D", "config": {"name": "zero_padding2d_15", "trainable": true, "padding": [[1, 1], [1, 1]], "data_format": "channels_last"}, "inbound_nodes": [[["activation_10", 0, 0, {}]]]}, {"name": "conv2d_27", "class_name": "Conv2D", "config": {"name": "conv2d_27", "trainable": true, "filters": 128, "kernel_size": [3, 3], "strides": [1, 1], "padding": "valid", "data_format": "channels_last", "dilation_rate": [1, 1], "activation": "linear", "use_bias": true, "kernel_initializer": {"class_name": "RandomNormal", "config": {"mean": 0.0, "stddev": 0.02, "seed": null}}, "bias_initializer": {"class_name": "Zeros", "config": {}}, "kernel_regularizer": null, "bias_regularizer": null, "activity_regularizer": null, "kernel_constraint": null, "bias_constraint": null}, "inbound_nodes": [[["zero_padding2d_15", 0, 0, {}]]]}, {"name": "batch_normalization_23", "class_name": "BatchNormalization", "config": {"name": "batch_normalization_23", "trainable": true, "axis": -1, "momentum": 0.99, "epsilon": 0.001, "center": true, "scale": true, "beta_initializer": {"class_name": "Zeros", "config": {}}, "gamma_initializer": {"class_name": "Ones", "config": {}}, "moving_mean_initializer": {"class_name": "Zeros", "config": {}}, "moving_variance_initializer": {"class_name": "Ones", "config": {}}, "beta_regularizer": null, "gamma_regularizer": null, "beta_constraint": null, "gamma_constraint": null}, "inbound_nodes": [[["conv2d_27", 0, 0, {}]]]}, {"name": "add_7", "class_name": "Add", "config": {"name": "add_7", "trainable": true}, "inbound_nodes": [[["add_6", 0, 0, {}], ["batch_normalization_23", 0, 0, {}]]]}, {"name": "zero_padding2d_16", "class_name": "ZeroPadding2D", "config": {"name": "zero_padding2d_16", "trainable": true, "padding": [[1, 1], [1, 1]], "data_format": "channels_last"}, "inbound_nodes": [[["add_7", 0, 0, {}]]]}, {"name": "conv2d_28", "class_name": "Conv2D", "config": {"name": "conv2d_28", "trainable": true, "filters": 128, "kernel_size": [3, 3], "strides": [1, 1], "padding": "valid", "data_format": "channels_last", "dilation_rate": [1, 1], "activation": "linear", "use_bias": true, "kernel_initializer": {"class_name": "RandomNormal", "config": {"mean": 0.0, "stddev": 0.02, "seed": null}}, "bias_initializer": {"class_name": "Zeros", "config": {}}, "kernel_regularizer": null, "bias_regularizer": null, "activity_regularizer": null, "kernel_constraint": null, "bias_constraint": null}, "inbound_nodes": [[["zero_padding2d_16", 0, 0, {}]]]}, {"name": "batch_normalization_24", "class_name": "BatchNormalization", "config": {"name": "batch_normalization_24", "trainable": true, "axis": -1, "momentum": 0.99, "epsilon": 0.001, "center": true, "scale": true, "beta_initializer": {"class_name": "Zeros", "config": {}}, "gamma_initializer": {"class_name": "Ones", "config": {}}, "moving_mean_initializer": {"class_name": "Zeros", "config": {}}, "moving_variance_initializer": {"class_name": "Ones", "config": {}}, "beta_regularizer": null, "gamma_regularizer": null, "beta_constraint": null, "gamma_constraint": null}, "inbound_nodes": [[["conv2d_28", 0, 0, {}]]]}, {"name": "activation_11", "class_name": "Activation", "config": {"name": "activation_11", "trainable": true, "activation": "relu"}, "inbound_nodes": [[["batch_normalization_24", 0, 0, {}]]]}, {"name": "zero_padding2d_17", "class_name": "ZeroPadding2D", "config": {"name": "zero_padding2d_17", "trainable": true, "padding": [[1, 1], [1, 1]], "data_format": "channels_last"}, "inbound_nodes": [[["activation_11", 0, 0, {}]]]}, {"name": "conv2d_29", "class_name": "Conv2D", "config": {"name": "conv2d_29", "trainable": true, "filters": 128, "kernel_size": [3, 3], "strides": [1, 1], "padding": "valid", "data_format": "channels_last", "dilation_rate": [1, 1], "activation": "linear", "use_bias": true, "kernel_initializer": {"class_name": "RandomNormal", "config": {"mean": 0.0, "stddev": 0.02, "seed": null}}, "bias_initializer": {"class_name": "Zeros", "config": {}}, "kernel_regularizer": null, "bias_regularizer": null, "activity_regularizer": null, "kernel_constraint": null, "bias_constraint": null}, "inbound_nodes": [[["zero_padding2d_17", 0, 0, {}]]]}, {"name": "batch_normalization_25", "class_name": "BatchNormalization", "config": {"name": "batch_normalization_25", "trainable": true, "axis": -1, "momentum": 0.99, "epsilon": 0.001, "center": true, "scale": true, "beta_initializer": {"class_name": "Zeros", "config": {}}, "gamma_initializer": {"class_name": "Ones", "config": {}}, "moving_mean_initializer": {"class_name": "Zeros", "config": {}}, "moving_variance_initializer": {"class_name": "Ones", "config": {}}, "beta_regularizer": null, "gamma_regularizer": null, "beta_constraint": null, "gamma_constraint": null}, "inbound_nodes": [[["conv2d_29", 0, 0, {}]]]}, {"name": "add_8", "class_name": "Add", "config": {"name": "add_8", "trainable": true}, "inbound_nodes": [[["add_7", 0, 0, {}], ["batch_normalization_25", 0, 0, {}]]]}, {"name": "zero_padding2d_18", "class_name": "ZeroPadding2D", "config": {"name": "zero_padding2d_18", "trainable": true, "padding": [[1, 1], [1, 1]], "data_format": "channels_last"}, "inbound_nodes": [[["add_8", 0, 0, {}]]]}, {"name": "conv2d_30", "class_name": "Conv2D", "config": {"name": "conv2d_30", "trainable": true, "filters": 128, "kernel_size": [3, 3], "strides": [1, 1], "padding": "valid", "data_format": "channels_last", "dilation_rate": [1, 1], "activation": "linear", "use_bias": true, "kernel_initializer": {"class_name": "RandomNormal", "config": {"mean": 0.0, "stddev": 0.02, "seed": null}}, "bias_initializer": {"class_name": "Zeros", "config": {}}, "kernel_regularizer": null, "bias_regularizer": null, "activity_regularizer": null, "kernel_constraint": null, "bias_constraint": null}, "inbound_nodes": [[["zero_padding2d_18", 0, 0, {}]]]}, {"name": "batch_normalization_26", "class_name": "BatchNormalization", "config": {"name": "batch_normalization_26", "trainable": true, "axis": -1, "momentum": 0.99, "epsilon": 0.001, "center": true, "scale": true, "beta_initializer": {"class_name": "Zeros", "config": {}}, "gamma_initializer": {"class_name": "Ones", "config": {}}, "moving_mean_initializer": {"class_name": "Zeros", "config": {}}, "moving_variance_initializer": {"class_name": "Ones", "config": {}}, "beta_regularizer": null, "gamma_regularizer": null, "beta_constraint": null, "gamma_constraint": null}, "inbound_nodes": [[["conv2d_30", 0, 0, {}]]]}, {"name": "activation_12", "class_name": "Activation", "config": {"name": "activation_12", "trainable": true, "activation": "relu"}, "inbound_nodes": [[["batch_normalization_26", 0, 0, {}]]]}, {"name": "zero_padding2d_19", "class_name": "ZeroPadding2D", "config": {"name": "zero_padding2d_19", "trainable": true, "padding": [[1, 1], [1, 1]], "data_format": "channels_last"}, "inbound_nodes": [[["activation_12", 0, 0, {}]]]}, {"name": "conv2d_31", "class_name": "Conv2D", "config": {"name": "conv2d_31", "trainable": true, "filters": 128, "kernel_size": [3, 3], "strides": [1, 1], "padding": "valid", "data_format": "channels_last", "dilation_rate": [1, 1], "activation": "linear", "use_bias": true, "kernel_initializer": {"class_name": "RandomNormal", "config": {"mean": 0.0, "stddev": 0.02, "seed": null}}, "bias_initializer": {"class_name": "Zeros", "config": {}}, "kernel_regularizer": null, "bias_regularizer": null, "activity_regularizer": null, "kernel_constraint": null, "bias_constraint": null}, "inbound_nodes": [[["zero_padding2d_19", 0, 0, {}]]]}, {"name": "batch_normalization_27", "class_name": "BatchNormalization", "config": {"name": "batch_normalization_27", "trainable": true, "axis": -1, "momentum": 0.99, "epsilon": 0.001, "center": true, "scale": true, "beta_initializer": {"class_name": "Zeros", "config": {}}, "gamma_initializer": {"class_name": "Ones", "config": {}}, "moving_mean_initializer": {"class_name": "Zeros", "config": {}}, "moving_variance_initializer": {"class_name": "Ones", "config": {}}, "beta_regularizer": null, "gamma_regularizer": null, "beta_constraint": null, "gamma_constraint": null}, "inbound_nodes": [[["conv2d_31", 0, 0, {}]]]}, {"name": "add_9", "class_name": "Add", "config": {"name": "add_9", "trainable": true}, "inbound_nodes": [[["add_8", 0, 0, {}], ["batch_normalization_27", 0, 0, {}]]]}, {"name": "conv2d_transpose_1", "class_name": "Conv2DTranspose", "config": {"name": "conv2d_transpose_1", "trainable": true, "filters": 64, "kernel_size": [3, 3], "strides": [2, 2], "padding": "same", "data_format": "channels_last", "dilation_rate": [1, 1], "activation": "linear", "use_bias": true, "kernel_initializer": {"class_name": "RandomNormal", "config": {"mean": 0.0, "stddev": 0.02, "seed": null}}, "bias_initializer": {"class_name": "Zeros", "config": {}}, "kernel_regularizer": null, "bias_regularizer": null, "activity_regularizer": null, "kernel_constraint": null, "bias_constraint": null, "output_padding": null}, "inbound_nodes": [[["add_9", 0, 0, {}]]]}, {"name": "batch_normalization_28", "class_name": "BatchNormalization", "config": {"name": "batch_normalization_28", "trainable": true, "axis": -1, "momentum": 0.99, "epsilon": 0.001, "center": true, "scale": true, "beta_initializer": {"class_name": "Zeros", "config": {}}, "gamma_initializer": {"class_name": "Ones", "config": {}}, "moving_mean_initializer": {"class_name": "Zeros", "config": {}}, "moving_variance_initializer": {"class_name": "Ones", "config": {}}, "beta_regularizer": null, "gamma_regularizer": null, "beta_constraint": null, "gamma_constraint": null}, "inbound_nodes": [[["conv2d_transpose_1", 0, 0, {}]]]}, {"name": "activation_13", "class_name": "Activation", "config": {"name": "activation_13", "trainable": true, "activation": "relu"}, "inbound_nodes": [[["batch_normalization_28", 0, 0, {}]]]}, {"name": "conv2d_transpose_2", "class_name": "Conv2DTranspose", "config": {"name": "conv2d_transpose_2", "trainable": true, "filters": 32, "kernel_size": [3, 3], "strides": [2, 2], "padding": "same", "data_format": "channels_last", "dilation_rate": [1, 1], "activation": "linear", "use_bias": true, "kernel_initializer": {"class_name": "RandomNormal", "config": {"mean": 0.0, "stddev": 0.02, "seed": null}}, "bias_initializer": {"class_name": "Zeros", "config": {}}, "kernel_regularizer": null, "bias_regularizer": null, "activity_regularizer": null, "kernel_constraint": null, "bias_constraint": null, "output_padding": null}, "inbound_nodes": [[["activation_13", 0, 0, {}]]]}, {"name": "batch_normalization_29", "class_name": "BatchNormalization", "config": {"name": "batch_normalization_29", "trainable": true, "axis": -1, "momentum": 0.99, "epsilon": 0.001, "center": true, "scale": true, "beta_initializer": {"class_name": "Zeros", "config": {}}, "gamma_initializer": {"class_name": "Ones", "config": {}}, "moving_mean_initializer": {"class_name": "Zeros", "config": {}}, "moving_variance_initializer": {"class_name": "Ones", "config": {}}, "beta_regularizer": null, "gamma_regularizer": null, "beta_constraint": null, "gamma_constraint": null}, "inbound_nodes": [[["conv2d_transpose_2", 0, 0, {}]]]}, {"name": "activation_14", "class_name": "Activation", "config": {"name": "activation_14", "trainable": true, "activation": "relu"}, "inbound_nodes": [[["batch_normalization_29", 0, 0, {}]]]}, {"name": "zero_padding2d_20", "class_name": "ZeroPadding2D", "config": {"name": "zero_padding2d_20", "trainable": true, "padding": [[3, 3], [3, 3]], "data_format": "channels_last"}, "inbound_nodes": [[["activation_14", 0, 0, {}]]]}, {"name": "conv2d_32", "class_name": "Conv2D", "config": {"name": "conv2d_32", "trainable": true, "filters": 3, "kernel_size": [7, 7], "strides": [1, 1], "padding": "valid", "data_format": "channels_last", "dilation_rate": [1, 1], "activation": "linear", "use_bias": true, "kernel_initializer": {"class_name": "RandomNormal", "config": {"mean": 0.0, "stddev": 0.02, "seed": null}}, "bias_initializer": {"class_name": "Zeros", "config": {}}, "kernel_regularizer": null, "bias_regularizer": null, "activity_regularizer": null, "kernel_constraint": null, "bias_constraint": null}, "inbound_nodes": [[["zero_padding2d_20", 0, 0, {}]]]}, {"name": "activation_15", "class_name": "Activation", "config": {"name": "activation_15", "trainable": true, "activation": "tanh"}, "inbound_nodes": [[["conv2d_32", 0, 0, {}]]]}], "input_layers": [["input_3", 0, 0]], "output_layers": [["activation_15", 0, 0]]}}}, "weightsManifest": [{"paths": ["group1-shard1of1.bin"], "weights": [{"name": "batch_normalization_10/gamma", "shape": [128], "dtype": "float32", "quantization": {"dtype": "uint8", "min": 0.9308805465698242, "scale": 0.0005333199220545152, "original_dtype": "float32"}}, {"name": "batch_normalization_10/beta", "shape": [128], "dtype": "float32", "quantization": {"dtype": "uint8", "min": -0.1317881625656988, "scale": 0.0006622520731944663, "original_dtype": "float32"}}, {"name": "batch_normalization_10/moving_mean", "shape": [128], "dtype": "float32", "quantization": {"dtype": "uint8", "min": -3.0182930441463696, "scale": 0.03144055254319135, "original_dtype": "float32"}}, {"name": "batch_normalization_10/moving_variance", "shape": [128], "dtype": "float32", "quantization": {"dtype": "uint8", "min": 0.7631348967552185, "scale": 0.04439497578377817, "original_dtype": "float32"}}, {"name": "batch_normalization_11/gamma", "shape": [128], "dtype": "float32", "quantization": {"dtype": "uint8", "min": 0.9553272128105164, "scale": 0.00040633655061908796, "original_dtype": "float32"}}, {"name": "batch_normalization_11/beta", "shape": [128], "dtype": "float32", "quantization": {"dtype": "uint8", "min": -0.06855120803503428, "scale": 0.00047937907716807195, "original_dtype": "float32"}}, {"name": "batch_normalization_11/moving_mean", "shape": [128], "dtype": "float32", "quantization": {"dtype": "uint8", "min": -2.933057036119349, "scale": 0.02110112975625431, "original_dtype": "float32"}}, {"name": "batch_normalization_11/moving_variance", "shape": [128], "dtype": "float32", "quantization": {"dtype": "uint8", "min": 0.9236355423927307, "scale": 0.044102679748161164, "original_dtype": "float32"}}, {"name": "batch_normalization_12/gamma", "shape": [128], "dtype": "float32", "quantization": {"dtype": "uint8", "min": 0.9506735801696777, "scale": 0.00039028046177882775, "original_dtype": "float32"}}, {"name": "batch_normalization_12/beta", "shape": [128], "dtype": "float32", "quantization": {"dtype": "uint8", "min": -0.1475510681815007, "scale": 0.0008151992717209984, "original_dtype": "float32"}}, {"name": "batch_normalization_12/moving_mean", "shape": [128], "dtype": "float32", "quantization": {"dtype": "uint8", "min": -2.072234442654778, "scale": 0.01501619161344042, "original_dtype": "float32"}}, {"name": "batch_normalization_12/moving_variance", "shape": [128], "dtype": "float32", "quantization": {"dtype": "uint8", "min": 2.3990437984466553, "scale": 0.20230739911397297, "original_dtype": "float32"}}, {"name": "batch_normalization_13/gamma", "shape": [128], "dtype": "float32", "quantization": {"dtype": "uint8", "min": 0.9233649373054504, "scale": 0.00046614268246818994, "original_dtype": "float32"}}, {"name": "batch_normalization_13/beta", "shape": [128], "dtype": "float32", "quantization": {"dtype": "uint8", "min": -0.059360783766297734, "scale": 0.00036195599857498617, "original_dtype": "float32"}}, {"name": "batch_normalization_13/moving_mean", "shape": [128], "dtype": "float32", "quantization": {"dtype": "uint8", "min": -2.709037149653715, "scale": 0.02202469227360744, "original_dtype": "float32"}}, {"name": "batch_normalization_13/moving_variance", "shape": [128], "dtype": "float32", "quantization": {"dtype": "uint8", "min": 1.004036545753479, "scale": 0.06923048496246338, "original_dtype": "float32"}}, {"name": "batch_normalization_14/gamma", "shape": [128], "dtype": "float32", "quantization": {"dtype": "uint8", "min": 0.9471548795700073, "scale": 0.0004199495502546722, "original_dtype": "float32"}}, {"name": "batch_normalization_14/beta", "shape": [128], "dtype": "float32", "quantization": {"dtype": "uint8", "min": -0.16577134877443314, "scale": 0.0008247330784797669, "original_dtype": "float32"}}, {"name": "batch_normalization_14/moving_mean", "shape": [128], "dtype": "float32", "quantization": {"dtype": "uint8", "min": -2.3083741482566382, "scale": 0.016607008260839124, "original_dtype": "float32"}}, {"name": "batch_normalization_14/moving_variance", "shape": [128], "dtype": "float32", "quantization": {"dtype": "uint8", "min": 4.8600077629089355, "scale": 0.22020887674069872, "original_dtype": "float32"}}, {"name": "batch_normalization_15/gamma", "shape": [128], "dtype": "float32", "quantization": {"dtype": "uint8", "min": 0.9140948057174683, "scale": 0.0005491714851528991, "original_dtype": "float32"}}, {"name": "batch_normalization_15/beta", "shape": [128], "dtype": "float32", "quantization": {"dtype": "uint8", "min": -0.056331091870864235, "scale": 0.0003313593639462602, "original_dtype": "float32"}}, {"name": "batch_normalization_15/moving_mean", "shape": [128], "dtype": "float32", "quantization": {"dtype": "uint8", "min": -2.9338492262597176, "scale": 0.024863129036099302, "original_dtype": "float32"}}, {"name": "batch_normalization_15/moving_variance", "shape": [128], "dtype": "float32", "quantization": {"dtype": "uint8", "min": 0.8332576751708984, "scale": 0.12862965452904795, "original_dtype": "float32"}}, {"name": "batch_normalization_16/gamma", "shape": [128], "dtype": "float32", "quantization": {"dtype": "uint8", "min": 0.9419363737106323, "scale": 0.0004756885416367475, "original_dtype": "float32"}}, {"name": "batch_normalization_16/beta", "shape": [128], "dtype": "float32", "quantization": {"dtype": "uint8", "min": -0.1538823455864308, "scale": 0.0007811286577991411, "original_dtype": "float32"}}, {"name": "batch_normalization_16/moving_mean", "shape": [128], "dtype": "float32", "quantization": {"dtype": "uint8", "min": -1.6000796598546647, "scale": 0.014286425534416648, "original_dtype": "float32"}}, {"name": "batch_normalization_16/moving_variance", "shape": [128], "dtype": "float32", "quantization": {"dtype": "uint8", "min": 4.079358100891113, "scale": 0.32971898621203855, "original_dtype": "float32"}}, {"name": "batch_normalization_17/gamma", "shape": [128], "dtype": "float32", "quantization": {"dtype": "uint8", "min": 0.9241088032722473, "scale": 0.0004967032694349102, "original_dtype": "float32"}}, {"name": "batch_normalization_17/beta", "shape": [128], "dtype": "float32", "quantization": {"dtype": "uint8", "min": -0.05415406483499443, "scale": 0.0003282064535454208, "original_dtype": "float32"}}, {"name": "batch_normalization_17/moving_mean", "shape": [128], "dtype": "float32", "quantization": {"dtype": "uint8", "min": -2.794914531707764, "scale": 0.019822088877360027, "original_dtype": "float32"}}, {"name": "batch_normalization_17/moving_variance", "shape": [128], "dtype": "float32", "quantization": {"dtype": "uint8", "min": 0.5341771245002747, "scale": 0.20498779404397105, "original_dtype": "float32"}}, {"name": "batch_normalization_18/gamma", "shape": [128], "dtype": "float32", "quantization": {"dtype": "uint8", "min": 0.945801317691803, "scale": 0.0004423358861137839, "original_dtype": "float32"}}, {"name": "batch_normalization_18/beta", "shape": [128], "dtype": "float32", "quantization": {"dtype": "uint8", "min": -0.1418050934871038, "scale": 0.0008390833934148153, "original_dtype": "float32"}}, {"name": "batch_normalization_18/moving_mean", "shape": [128], "dtype": "float32", "quantization": {"dtype": "uint8", "min": -1.3295898100909065, "scale": 0.011663068509569356, "original_dtype": "float32"}}, {"name": "batch_normalization_18/moving_variance", "shape": [128], "dtype": "float32", "quantization": {"dtype": "uint8", "min": 6.666569232940674, "scale": 0.5138710601657045, "original_dtype": "float32"}}, {"name": "batch_normalization_19/gamma", "shape": [128], "dtype": "float32", "quantization": {"dtype": "uint8", "min": 0.9224863648414612, "scale": 0.000492856315537995, "original_dtype": "float32"}}, {"name": "batch_normalization_19/beta", "shape": [128], "dtype": "float32", "quantization": {"dtype": "uint8", "min": -0.052794318865327275, "scale": 0.0003219165784471175, "original_dtype": "float32"}}, {"name": "batch_normalization_19/moving_mean", "shape": [128], "dtype": "float32", "quantization": {"dtype": "uint8", "min": -2.230753528370577, "scale": 0.018284864986644073, "original_dtype": "float32"}}, {"name": "batch_normalization_19/moving_variance", "shape": [128], "dtype": "float32", "quantization": {"dtype": "uint8", "min": 0.9372971653938293, "scale": 0.28207503931195127, "original_dtype": "float32"}}, {"name": "batch_normalization_20/gamma", "shape": [128], "dtype": "float32", "quantization": {"dtype": "uint8", "min": 0.937743067741394, "scale": 0.0004746006984336703, "original_dtype": "float32"}}, {"name": "batch_normalization_20/beta", "shape": [128], "dtype": "float32", "quantization": {"dtype": "uint8", "min": -0.15028329152686923, "scale": 0.0008686895463980881, "original_dtype": "float32"}}, {"name": "batch_normalization_20/moving_mean", "shape": [128], "dtype": "float32", "quantization": {"dtype": "uint8", "min": -1.5810262820299934, "scale": 0.014775946561027976, "original_dtype": "float32"}}, {"name": "batch_normalization_20/moving_variance", "shape": [128], "dtype": "float32", "quantization": {"dtype": "uint8", "min": 9.320199966430664, "scale": 0.8653698117125268, "original_dtype": "float32"}}, {"name": "batch_normalization_21/gamma", "shape": [128], "dtype": "float32", "quantization": {"dtype": "uint8", "min": 0.9252066612243652, "scale": 0.0005903239343680587, "original_dtype": "float32"}}, {"name": "batch_normalization_21/beta", "shape": [128], "dtype": "float32", "quantization": {"dtype": "uint8", "min": -0.051313454197610124, "scale": 0.00031480646747000075, "original_dtype": "float32"}}, {"name": "batch_normalization_21/moving_mean", "shape": [128], "dtype": "float32", "quantization": {"dtype": "uint8", "min": -2.0492762341218835, "scale": 0.017976107316858628, "original_dtype": "float32"}}, {"name": "batch_normalization_21/moving_variance", "shape": [128], "dtype": "float32", "quantization": {"dtype": "uint8", "min": 0.5799334645271301, "scale": 0.21500098915661084, "original_dtype": "float32"}}, {"name": "batch_normalization_22/gamma", "shape": [128], "dtype": "float32", "quantization": {"dtype": "uint8", "min": 0.9410403370857239, "scale": 0.0006957846529343549, "original_dtype": "float32"}}, {"name": "batch_normalization_22/beta", "shape": [128], "dtype": "float32", "quantization": {"dtype": "uint8", "min": -0.1471616127911736, "scale": 0.0007432404686422909, "original_dtype": "float32"}}, {"name": "batch_normalization_22/moving_mean", "shape": [128], "dtype": "float32", "quantization": {"dtype": "uint8", "min": -1.2232989666508693, "scale": 0.010825654572131587, "original_dtype": "float32"}}, {"name": "batch_normalization_22/moving_variance", "shape": [128], "dtype": "float32", "quantization": {"dtype": "uint8", "min": 16.06178855895996, "scale": 1.482601786594765, "original_dtype": "float32"}}, {"name": "batch_normalization_23/gamma", "shape": [128], "dtype": "float32", "quantization": {"dtype": "uint8", "min": 0.927743136882782, "scale": 0.0004244390655966366, "original_dtype": "float32"}}, {"name": "batch_normalization_23/beta", "shape": [128], "dtype": "float32", "quantization": {"dtype": "uint8", "min": -0.049681243300437924, "scale": 0.00030667434136072793, "original_dtype": "float32"}}, {"name": "batch_normalization_23/moving_mean", "shape": [128], "dtype": "float32", "quantization": {"dtype": "uint8", "min": -1.7107289328294641, "scale": 0.015139194095835966, "original_dtype": "float32"}}, {"name": "batch_normalization_23/moving_variance", "shape": [128], "dtype": "float32", "quantization": {"dtype": "uint8", "min": 0.7020934820175171, "scale": 0.1953198362799252, "original_dtype": "float32"}}, {"name": "batch_normalization_24/gamma", "shape": [128], "dtype": "float32", "quantization": {"dtype": "uint8", "min": 0.9243600964546204, "scale": 0.0006395580721836465, "original_dtype": "float32"}}, {"name": "batch_normalization_24/beta", "shape": [128], "dtype": "float32", "quantization": {"dtype": "uint8", "min": -0.15313504759003133, "scale": 0.000880086480402479, "original_dtype": "float32"}}, {"name": "batch_normalization_24/moving_mean", "shape": [128], "dtype": "float32", "quantization": {"dtype": "uint8", "min": -1.2200268198462092, "scale": 0.011192906604093663, "original_dtype": "float32"}}, {"name": "batch_normalization_24/moving_variance", "shape": [128], "dtype": "float32", "quantization": {"dtype": "uint8", "min": 8.681406021118164, "scale": 1.389078738642674, "original_dtype": "float32"}}, {"name": "batch_normalization_25/gamma", "shape": [128], "dtype": "float32", "quantization": {"dtype": "uint8", "min": 0.9495108127593994, "scale": 0.0003431857800951191, "original_dtype": "float32"}}, {"name": "batch_normalization_25/beta", "shape": [128], "dtype": "float32", "quantization": {"dtype": "uint8", "min": -0.04918012296160062, "scale": 0.0003054666022459666, "original_dtype": "float32"}}, {"name": "batch_normalization_25/moving_mean", "shape": [128], "dtype": "float32", "quantization": {"dtype": "uint8", "min": -1.8261656120711682, "scale": 0.013730568511813295, "original_dtype": "float32"}}, {"name": "batch_normalization_25/moving_variance", "shape": [128], "dtype": "float32", "quantization": {"dtype": "uint8", "min": 0.8261943459510803, "scale": 0.20152166193606807, "original_dtype": "float32"}}, {"name": "batch_normalization_26/gamma", "shape": [128], "dtype": "float32", "quantization": {"dtype": "uint8", "min": 0.9504562020301819, "scale": 0.00043120594585643093, "original_dtype": "float32"}}, {"name": "batch_normalization_26/beta", "shape": [128], "dtype": "float32", "quantization": {"dtype": "uint8", "min": -0.1336866021156311, "scale": 0.0007595829665660858, "original_dtype": "float32"}}, {"name": "batch_normalization_26/moving_mean", "shape": [128], "dtype": "float32", "quantization": {"dtype": "uint8", "min": -1.4908950487772623, "scale": 0.012528529821657667, "original_dtype": "float32"}}, {"name": "batch_normalization_26/moving_variance", "shape": [128], "dtype": "float32", "quantization": {"dtype": "uint8", "min": 9.478589057922363, "scale": 1.8373854207057578, "original_dtype": "float32"}}, {"name": "batch_normalization_27/gamma", "shape": [128], "dtype": "float32", "quantization": {"dtype": "uint8", "min": 0.9174222350120544, "scale": 0.0005703124345517626, "original_dtype": "float32"}}, {"name": "batch_normalization_27/beta", "shape": [128], "dtype": "float32", "quantization": {"dtype": "uint8", "min": -0.04892229104743284, "scale": 0.00029830665272824903, "original_dtype": "float32"}}, {"name": "batch_normalization_27/moving_mean", "shape": [128], "dtype": "float32", "quantization": {"dtype": "uint8", "min": -1.933806718564501, "scale": 0.014875436296650007, "original_dtype": "float32"}}, {"name": "batch_normalization_27/moving_variance", "shape": [128], "dtype": "float32", "quantization": {"dtype": "uint8", "min": 2.1287927627563477, "scale": 0.23715538698084215, "original_dtype": "float32"}}, {"name": "batch_normalization_28/gamma", "shape": [64], "dtype": "float32", "quantization": {"dtype": "uint8", "min": 0.9630202651023865, "scale": 0.000334774512870639, "original_dtype": "float32"}}, {"name": "batch_normalization_28/beta", "shape": [64], "dtype": "float32", "quantization": {"dtype": "uint8", "min": -0.10484564899667806, "scale": 0.00048765418137989793, "original_dtype": "float32"}}, {"name": "batch_normalization_28/moving_mean", "shape": [64], "dtype": "float32", "quantization": {"dtype": "uint8", "min": -0.27723413635702693, "scale": 0.0024318783890967277, "original_dtype": "float32"}}, {"name": "batch_normalization_28/moving_variance", "shape": [64], "dtype": "float32", "quantization": {"dtype": "uint8", "min": 3.4460153579711914, "scale": 0.18097164303648705, "original_dtype": "float32"}}, {"name": "batch_normalization_29/gamma", "shape": [32], "dtype": "float32", "quantization": {"dtype": "uint8", "min": 0.8962305784225464, "scale": 0.0003787043047886269, "original_dtype": "float32"}}, {"name": "batch_normalization_29/beta", "shape": [32], "dtype": "float32", "quantization": {"dtype": "uint8", "min": -0.10031768679618835, "scale": 0.00038560833599345356, "original_dtype": "float32"}}, {"name": "batch_normalization_29/moving_mean", "shape": [32], "dtype": "float32", "quantization": {"dtype": "uint8", "min": -0.2376428097486496, "scale": 0.0008561856387292638, "original_dtype": "float32"}}, {"name": "batch_normalization_29/moving_variance", "shape": [32], "dtype": "float32", "quantization": {"dtype": "uint8", "min": 0.21630266308784485, "scale": 0.010277661038380043, "original_dtype": "float32"}}, {"name": "batch_normalization_7/gamma", "shape": [32], "dtype": "float32", "quantization": {"dtype": "uint8", "min": 0.9306631088256836, "scale": 0.0005545620824776444, "original_dtype": "float32"}}, {"name": "batch_normalization_7/beta", "shape": [32], "dtype": "float32", "quantization": {"dtype": "uint8", "min": -0.07692671374363058, "scale": 0.0008643450982430402, "original_dtype": "float32"}}, {"name": "batch_normalization_7/moving_mean", "shape": [32], "dtype": "float32", "quantization": {"dtype": "uint8", "min": -0.42304953640582516, "scale": 0.003021782402898751, "original_dtype": "float32"}}, {"name": "batch_normalization_7/moving_variance", "shape": [32], "dtype": "float32", "quantization": {"dtype": "uint8", "min": 0.002389277331531048, "scale": 0.004280852004155225, "original_dtype": "float32"}}, {"name": "batch_normalization_8/gamma", "shape": [64], "dtype": "float32", "quantization": {"dtype": "uint8", "min": 0.9378655552864075, "scale": 0.0011082230829725077, "original_dtype": "float32"}}, {"name": "batch_normalization_8/beta", "shape": [64], "dtype": "float32", "quantization": {"dtype": "uint8", "min": -0.14311092741349166, "scale": 0.0014311092741349164, "original_dtype": "float32"}}, {"name": "batch_normalization_8/moving_mean", "shape": [64], "dtype": "float32", "quantization": {"dtype": "uint8", "min": -1.2360126789878396, "scale": 0.010048883569006826, "original_dtype": "float32"}}, {"name": "batch_normalization_8/moving_variance", "shape": [64], "dtype": "float32", "quantization": {"dtype": "uint8", "min": 0.007831196300685406, "scale": 0.004047863700372331, "original_dtype": "float32"}}, {"name": "batch_normalization_9/gamma", "shape": [128], "dtype": "float32", "quantization": {"dtype": "uint8", "min": 0.9739934206008911, "scale": 0.00043418687932631546, "original_dtype": "float32"}}, {"name": "batch_normalization_9/beta", "shape": [128], "dtype": "float32", "quantization": {"dtype": "uint8", "min": -0.12088497479756674, "scale": 0.0007555310924847921, "original_dtype": "float32"}}, {"name": "batch_normalization_9/moving_mean", "shape": [128], "dtype": "float32", "quantization": {"dtype": "uint8", "min": -1.9097023524490058, "scale": 0.01660610741260005, "original_dtype": "float32"}}, {"name": "batch_normalization_9/moving_variance", "shape": [128], "dtype": "float32", "quantization": {"dtype": "uint8", "min": 0.19331498444080353, "scale": 0.012355876611728295, "original_dtype": "float32"}}, {"name": "conv2d_11/kernel", "shape": [7, 7, 3, 32], "dtype": "float32", "quantization": {"dtype": "uint8", "min": -0.1112324835623012, "scale": 0.000984358261613285, "original_dtype": "float32"}}, {"name": "conv2d_11/bias", "shape": [32], "dtype": "float32", "quantization": {"dtype": "uint8", "min": -0.015853435546159745, "scale": 0.00015542583868784064, "original_dtype": "float32"}}, {"name": "conv2d_12/kernel", "shape": [3, 3, 32, 64], "dtype": "float32", "quantization": {"dtype": "uint8", "min": -0.10360842054965448, "scale": 0.0008562679384268966, "original_dtype": "float32"}}, {"name": "conv2d_12/bias", "shape": [64], "dtype": "float32", "quantization": {"dtype": "uint8", "min": -0.01631575204139831, "scale": 0.00012454772550685733, "original_dtype": "float32"}}, {"name": "conv2d_13/kernel", "shape": [3, 3, 64, 128], "dtype": "float32", "quantization": {"dtype": "uint8", "min": -0.14919956688787422, "scale": 0.0011218012547960469, "original_dtype": "float32"}}, {"name": "conv2d_13/bias", "shape": [128], "dtype": "float32", "quantization": {"dtype": "uint8", "min": -0.0017562895666296578, "scale": 1.1866821396146336e-05, "original_dtype": "float32"}}, {"name": "conv2d_14/kernel", "shape": [3, 3, 128, 128], "dtype": "float32", "quantization": {"dtype": "uint8", "min": -0.12038943741251441, "scale": 0.0009479483260827907, "original_dtype": "float32"}}, {"name": "conv2d_14/bias", "shape": [128], "dtype": "float32", "quantization": {"dtype": "uint8", "min": -0.000575742350124261, "scale": 4.361684470638341e-06, "original_dtype": "float32"}}, {"name": "conv2d_15/kernel", "shape": [3, 3, 128, 128], "dtype": "float32", "quantization": {"dtype": "uint8", "min": -0.12922278221915748, "scale": 0.0009940214016858268, "original_dtype": "float32"}}, {"name": "conv2d_15/bias", "shape": [128], "dtype": "float32", "quantization": {"dtype": "uint8", "min": -0.0002905299537815154, "scale": 2.848332880210935e-06, "original_dtype": "float32"}}, {"name": "conv2d_16/kernel", "shape": [3, 3, 128, 128], "dtype": "float32", "quantization": {"dtype": "uint8", "min": -0.11775007177801693, "scale": 0.0010064108698975805, "original_dtype": "float32"}}, {"name": "conv2d_16/bias", "shape": [128], "dtype": "float32", "quantization": {"dtype": "uint8", "min": -0.00011569799001639088, "scale": 8.507205148264035e-07, "original_dtype": "float32"}}, {"name": "conv2d_17/kernel", "shape": [3, 3, 128, 128], "dtype": "float32", "quantization": {"dtype": "uint8", "min": -0.11302671590272118, "scale": 0.0008970374277993744, "original_dtype": "float32"}}, {"name": "conv2d_17/bias", "shape": [128], "dtype": "float32", "quantization": {"dtype": "uint8", "min": -0.0003178172857801923, "scale": 2.254023303405619e-06, "original_dtype": "float32"}}, {"name": "conv2d_18/kernel", "shape": [3, 3, 128, 128], "dtype": "float32", "quantization": {"dtype": "uint8", "min": -0.10768758753935495, "scale": 0.0009364138046900431, "original_dtype": "float32"}}, {"name": "conv2d_18/bias", "shape": [128], "dtype": "float32", "quantization": {"dtype": "uint8", "min": -8.482851248403426e-05, "scale": 5.472807257034469e-07, "original_dtype": "float32"}}, {"name": "conv2d_19/kernel", "shape": [3, 3, 128, 128], "dtype": "float32", "quantization": {"dtype": "uint8", "min": -0.10996244619874393, "scale": 0.0009318851372774909, "original_dtype": "float32"}}, {"name": "conv2d_19/bias", "shape": [128], "dtype": "float32", "quantization": {"dtype": "uint8", "min": -0.00017091426707338542, "scale": 1.6277549245084324e-06, "original_dtype": "float32"}}, {"name": "conv2d_20/kernel", "shape": [3, 3, 128, 128], "dtype": "float32", "quantization": {"dtype": "uint8", "min": -0.11635726994159175, "scale": 0.0008748666912901635, "original_dtype": "float32"}}, {"name": "conv2d_20/bias", "shape": [128], "dtype": "float32", "quantization": {"dtype": "uint8", "min": -4.039457314373816e-05, "scale": 3.7402382540498293e-07, "original_dtype": "float32"}}, {"name": "conv2d_21/kernel", "shape": [3, 3, 128, 128], "dtype": "float32", "quantization": {"dtype": "uint8", "min": -0.11625103857003007, "scale": 0.0009851782929663564, "original_dtype": "float32"}}, {"name": "conv2d_21/bias", "shape": [128], "dtype": "float32", "quantization": {"dtype": "uint8", "min": -0.00019796485909918214, "scale": 1.5346113108463732e-06, "original_dtype": "float32"}}, {"name": "conv2d_22/kernel", "shape": [3, 3, 128, 128], "dtype": "float32", "quantization": {"dtype": "uint8", "min": -0.12503103368422563, "scale": 0.0009768049506580128, "original_dtype": "float32"}}, {"name": "conv2d_22/bias", "shape": [128], "dtype": "float32", "quantization": {"dtype": "uint8", "min": -3.23311430239461e-05, "scale": 2.292988866946532e-07, "original_dtype": "float32"}}, {"name": "conv2d_23/kernel", "shape": [3, 3, 128, 128], "dtype": "float32", "quantization": {"dtype": "uint8", "min": -0.1165808337576249, "scale": 0.0009252447123621024, "original_dtype": "float32"}}, {"name": "conv2d_23/bias", "shape": [128], "dtype": "float32", "quantization": {"dtype": "uint8", "min": -0.00014986425841355, "scale": 1.7426076559715118e-06, "original_dtype": "float32"}}, {"name": "conv2d_24/kernel", "shape": [3, 3, 128, 128], "dtype": "float32", "quantization": {"dtype": "uint8", "min": -0.12117856670828427, "scale": 0.0009393687341727462, "original_dtype": "float32"}}, {"name": "conv2d_24/bias", "shape": [128], "dtype": "float32", "quantization": {"dtype": "uint8", "min": -4.018400025362259e-05, "scale": 2.5925161453950056e-07, "original_dtype": "float32"}}, {"name": "conv2d_25/kernel", "shape": [3, 3, 128, 128], "dtype": "float32", "quantization": {"dtype": "uint8", "min": -0.11124228157249151, "scale": 0.0009118219801023895, "original_dtype": "float32"}}, {"name": "conv2d_25/bias", "shape": [128], "dtype": "float32", "quantization": {"dtype": "uint8", "min": -0.00015966083543996016, "scale": 1.1739767311761776e-06, "original_dtype": "float32"}}, {"name": "conv2d_26/kernel", "shape": [3, 3, 128, 128], "dtype": "float32", "quantization": {"dtype": "uint8", "min": -0.12224153052358065, "scale": 0.0009122502277879153, "original_dtype": "float32"}}, {"name": "conv2d_26/bias", "shape": [128], "dtype": "float32", "quantization": {"dtype": "uint8", "min": -3.2289529917761685e-05, "scale": 2.181724994443357e-07, "original_dtype": "float32"}}, {"name": "conv2d_27/kernel", "shape": [3, 3, 128, 128], "dtype": "float32", "quantization": {"dtype": "uint8", "min": -0.12188402957776014, "scale": 0.0009673335680774614, "original_dtype": "float32"}}, {"name": "conv2d_27/bias", "shape": [128], "dtype": "float32", "quantization": {"dtype": "uint8", "min": -0.00016363273978498127, "scale": 1.128501653689526e-06, "original_dtype": "float32"}}, {"name": "conv2d_28/kernel", "shape": [3, 3, 128, 128], "dtype": "float32", "quantization": {"dtype": "uint8", "min": -0.11890875907505259, "scale": 0.0009217733261631984, "original_dtype": "float32"}}, {"name": "conv2d_28/bias", "shape": [128], "dtype": "float32", "quantization": {"dtype": "uint8", "min": -1.5387587550589267e-05, "scale": 1.602873703186382e-07, "original_dtype": "float32"}}, {"name": "conv2d_29/kernel", "shape": [3, 3, 128, 128], "dtype": "float32", "quantization": {"dtype": "uint8", "min": -0.13102644085884094, "scale": 0.001015708843866984, "original_dtype": "float32"}}, {"name": "conv2d_29/bias", "shape": [128], "dtype": "float32", "quantization": {"dtype": "uint8", "min": -0.00016047262538717512, "scale": 1.24397384021066e-06, "original_dtype": "float32"}}, {"name": "conv2d_30/kernel", "shape": [3, 3, 128, 128], "dtype": "float32", "quantization": {"dtype": "uint8", "min": -0.12371894267259859, "scale": 0.0009444194097144931, "original_dtype": "float32"}}, {"name": "conv2d_30/bias", "shape": [128], "dtype": "float32", "quantization": {"dtype": "uint8", "min": -2.067301658612183e-05, "scale": 1.476644041865845e-07, "original_dtype": "float32"}}, {"name": "conv2d_31/kernel", "shape": [3, 3, 128, 128], "dtype": "float32", "quantization": {"dtype": "uint8", "min": -0.13827677813230776, "scale": 0.0009669704764497046, "original_dtype": "float32"}}, {"name": "conv2d_31/bias", "shape": [128], "dtype": "float32", "quantization": {"dtype": "uint8", "min": -0.0003144693725249346, "scale": 1.871841503124611e-06, "original_dtype": "float32"}}, {"name": "conv2d_32/kernel", "shape": [7, 7, 32, 3], "dtype": "float32", "quantization": {"dtype": "uint8", "min": -0.08562587420730029, "scale": 0.0006342657348688911, "original_dtype": "float32"}}, {"name": "conv2d_32/bias", "shape": [3], "dtype": "float32", "quantization": {"dtype": "uint8", "min": -0.02165588495485923, "scale": 0.0001443725663657282, "original_dtype": "float32"}}, {"name": "conv2d_transpose_1/kernel", "shape": [3, 3, 64, 128], "dtype": "float32", "quantization": {"dtype": "uint8", "min": -0.1309510852484142, "scale": 0.0009996266049497268, "original_dtype": "float32"}}, {"name": "conv2d_transpose_1/bias", "shape": [64], "dtype": "float32", "quantization": {"dtype": "uint8", "min": -0.0005286023075528005, "scale": 9.788931621348157e-06, "original_dtype": "float32"}}, {"name": "conv2d_transpose_2/kernel", "shape": [3, 3, 32, 64], "dtype": "float32", "quantization": {"dtype": "uint8", "min": -0.18207536623174067, "scale": 0.0010902716540822795, "original_dtype": "float32"}}, {"name": "conv2d_transpose_2/bias", "shape": [32], "dtype": "float32", "quantization": {"dtype": "uint8", "min": -0.02875440076870077, "scale": 0.00020249578006127303, "original_dtype": "float32"}}]}]}