{"format": "layers-model", "generatedBy": "keras v2.3.1", "convertedBy": "TensorFlow.js Converter v3.0.0", "modelTopology": {"keras_version": "2.3.1", "backend": "tensorflow", "model_config": {"class_name": "Model", "config": {"name": "model_8", "layers": [{"name": "input_9", "class_name": "InputLayer", "config": {"batch_input_shape": [null, 128, 128, 3], "dtype": "float32", "sparse": false, "name": "input_9"}, "inbound_nodes": []}, {"name": "conv2d_37", "class_name": "Conv2D", "config": {"name": "conv2d_37", "trainable": true, "dtype": "float32", "filters": 32, "kernel_size": [4, 4], "strides": [2, 2], "padding": "same", "data_format": "channels_last", "dilation_rate": [1, 1], "activation": "linear", "use_bias": true, "kernel_initializer": {"class_name": "VarianceScaling", "config": {"scale": 1.0, "mode": "fan_avg", "distribution": "uniform", "seed": null}}, "bias_initializer": {"class_name": "Zeros", "config": {}}, "kernel_regularizer": null, "bias_regularizer": null, "activity_regularizer": null, "kernel_constraint": null, "bias_constraint": null}, "inbound_nodes": [[["input_9", 0, 0, {}]]]}, {"name": "leaky_re_lu_25", "class_name": "LeakyReLU", "config": {"name": "leaky_re_lu_25", "trainable": true, "dtype": "float32", "alpha": 0.20000000298023224}, "inbound_nodes": [[["conv2d_37", 0, 0, {}]]]}, {"name": "instance_normalization_7", "class_name": "InstanceNormalization", "config": {"name": "instance_normalization_7", "trainable": true, "dtype": "float32", "axis": null, "epsilon": 0.001, "center": true, "scale": true, "beta_initializer": {"class_name": "Zeros", "config": {}}, "gamma_initializer": {"class_name": "Ones", "config": {}}, "beta_regularizer": null, "gamma_regularizer": null, "beta_constraint": null, "gamma_constraint": null}, "inbound_nodes": [[["leaky_re_lu_25", 0, 0, {}]]]}, {"name": "conv2d_38", "class_name": "Conv2D", "config": {"name": "conv2d_38", "trainable": true, "dtype": "float32", "filters": 64, "kernel_size": [4, 4], "strides": [2, 2], "padding": "same", "data_format": "channels_last", "dilation_rate": [1, 1], "activation": "linear", "use_bias": true, "kernel_initializer": {"class_name": "VarianceScaling", "config": {"scale": 1.0, "mode": "fan_avg", "distribution": "uniform", "seed": null}}, "bias_initializer": {"class_name": "Zeros", "config": {}}, "kernel_regularizer": null, "bias_regularizer": null, "activity_regularizer": null, "kernel_constraint": null, "bias_constraint": null}, "inbound_nodes": [[["instance_normalization_7", 0, 0, {}]]]}, {"name": "leaky_re_lu_26", "class_name": "LeakyReLU", "config": {"name": "leaky_re_lu_26", "trainable": true, "dtype": "float32", "alpha": 0.20000000298023224}, "inbound_nodes": [[["conv2d_38", 0, 0, {}]]]}, {"name": "instance_normalization_8", "class_name": "InstanceNormalization", "config": {"name": "instance_normalization_8", "trainable": true, "dtype": "float32", "axis": null, "epsilon": 0.001, "center": true, "scale": true, "beta_initializer": {"class_name": "Zeros", "config": {}}, "gamma_initializer": {"class_name": "Ones", "config": {}}, "beta_regularizer": null, "gamma_regularizer": null, "beta_constraint": null, "gamma_constraint": null}, "inbound_nodes": [[["leaky_re_lu_26", 0, 0, {}]]]}, {"name": "conv2d_39", "class_name": "Conv2D", "config": {"name": "conv2d_39", "trainable": true, "dtype": "float32", "filters": 128, "kernel_size": [4, 4], "strides": [2, 2], "padding": "same", "data_format": "channels_last", "dilation_rate": [1, 1], "activation": "linear", "use_bias": true, "kernel_initializer": {"class_name": "VarianceScaling", "config": {"scale": 1.0, "mode": "fan_avg", "distribution": "uniform", "seed": null}}, "bias_initializer": {"class_name": "Zeros", "config": {}}, "kernel_regularizer": null, "bias_regularizer": null, "activity_regularizer": null, "kernel_constraint": null, "bias_constraint": null}, "inbound_nodes": [[["instance_normalization_8", 0, 0, {}]]]}, {"name": "leaky_re_lu_27", "class_name": "LeakyReLU", "config": {"name": "leaky_re_lu_27", "trainable": true, "dtype": "float32", "alpha": 0.20000000298023224}, "inbound_nodes": [[["conv2d_39", 0, 0, {}]]]}, {"name": "instance_normalization_9", "class_name": "InstanceNormalization", "config": {"name": "instance_normalization_9", "trainable": true, "dtype": "float32", "axis": null, "epsilon": 0.001, "center": true, "scale": true, "beta_initializer": {"class_name": "Zeros", "config": {}}, "gamma_initializer": {"class_name": "Ones", "config": {}}, "beta_regularizer": null, "gamma_regularizer": null, "beta_constraint": null, "gamma_constraint": null}, "inbound_nodes": [[["leaky_re_lu_27", 0, 0, {}]]]}, {"name": "conv2d_40", "class_name": "Conv2D", "config": {"name": "conv2d_40", "trainable": true, "dtype": "float32", "filters": 256, "kernel_size": [4, 4], "strides": [2, 2], "padding": "same", "data_format": "channels_last", "dilation_rate": [1, 1], "activation": "linear", "use_bias": true, "kernel_initializer": {"class_name": "VarianceScaling", "config": {"scale": 1.0, "mode": "fan_avg", "distribution": "uniform", "seed": null}}, "bias_initializer": {"class_name": "Zeros", "config": {}}, "kernel_regularizer": null, "bias_regularizer": null, "activity_regularizer": null, "kernel_constraint": null, "bias_constraint": null}, "inbound_nodes": [[["instance_normalization_9", 0, 0, {}]]]}, {"name": "leaky_re_lu_28", "class_name": "LeakyReLU", "config": {"name": "leaky_re_lu_28", "trainable": true, "dtype": "float32", "alpha": 0.20000000298023224}, "inbound_nodes": [[["conv2d_40", 0, 0, {}]]]}, {"name": "instance_normalization_10", "class_name": "InstanceNormalization", "config": {"name": "instance_normalization_10", "trainable": true, "dtype": "float32", "axis": null, "epsilon": 0.001, "center": true, "scale": true, "beta_initializer": {"class_name": "Zeros", "config": {}}, "gamma_initializer": {"class_name": "Ones", "config": {}}, "beta_regularizer": null, "gamma_regularizer": null, "beta_constraint": null, "gamma_constraint": null}, "inbound_nodes": [[["leaky_re_lu_28", 0, 0, {}]]]}, {"name": "up_sampling2d_9", "class_name": "UpSampling2D", "config": {"name": "up_sampling2d_9", "trainable": true, "dtype": "float32", "size": [2, 2], "data_format": "channels_last", "interpolation": "nearest"}, "inbound_nodes": [[["instance_normalization_10", 0, 0, {}]]]}, {"name": "conv2d_41", "class_name": "Conv2D", "config": {"name": "conv2d_41", "trainable": true, "dtype": "float32", "filters": 128, "kernel_size": [4, 4], "strides": [1, 1], "padding": "same", "data_format": "channels_last", "dilation_rate": [1, 1], "activation": "relu", "use_bias": true, "kernel_initializer": {"class_name": "VarianceScaling", "config": {"scale": 1.0, "mode": "fan_avg", "distribution": "uniform", "seed": null}}, "bias_initializer": {"class_name": "Zeros", "config": {}}, "kernel_regularizer": null, "bias_regularizer": null, "activity_regularizer": null, "kernel_constraint": null, "bias_constraint": null}, "inbound_nodes": [[["up_sampling2d_9", 0, 0, {}]]]}, {"name": "instance_normalization_11", "class_name": "InstanceNormalization", "config": {"name": "instance_normalization_11", "trainable": true, "dtype": "float32", "axis": null, "epsilon": 0.001, "center": true, "scale": true, "beta_initializer": {"class_name": "Zeros", "config": {}}, "gamma_initializer": {"class_name": "Ones", "config": {}}, "beta_regularizer": null, "gamma_regularizer": null, "beta_constraint": null, "gamma_constraint": null}, "inbound_nodes": [[["conv2d_41", 0, 0, {}]]]}, {"name": "concatenate_7", "class_name": "Concatenate", "config": {"name": "concatenate_7", "trainable": true, "dtype": "float32", "axis": -1}, "inbound_nodes": [[["instance_normalization_11", 0, 0, {}], ["instance_normalization_9", 0, 0, {}]]]}, {"name": "up_sampling2d_10", "class_name": "UpSampling2D", "config": {"name": "up_sampling2d_10", "trainable": true, "dtype": "float32", "size": [2, 2], "data_format": "channels_last", "interpolation": "nearest"}, "inbound_nodes": [[["concatenate_7", 0, 0, {}]]]}, {"name": "conv2d_42", "class_name": "Conv2D", "config": {"name": "conv2d_42", "trainable": true, "dtype": "float32", "filters": 64, "kernel_size": [4, 4], "strides": [1, 1], "padding": "same", "data_format": "channels_last", "dilation_rate": [1, 1], "activation": "relu", "use_bias": true, "kernel_initializer": {"class_name": "VarianceScaling", "config": {"scale": 1.0, "mode": "fan_avg", "distribution": "uniform", "seed": null}}, "bias_initializer": {"class_name": "Zeros", "config": {}}, "kernel_regularizer": null, "bias_regularizer": null, "activity_regularizer": null, "kernel_constraint": null, "bias_constraint": null}, "inbound_nodes": [[["up_sampling2d_10", 0, 0, {}]]]}, {"name": "instance_normalization_12", "class_name": "InstanceNormalization", "config": {"name": "instance_normalization_12", "trainable": true, "dtype": "float32", "axis": null, "epsilon": 0.001, "center": true, "scale": true, "beta_initializer": {"class_name": "Zeros", "config": {}}, "gamma_initializer": {"class_name": "Ones", "config": {}}, "beta_regularizer": null, "gamma_regularizer": null, "beta_constraint": null, "gamma_constraint": null}, "inbound_nodes": [[["conv2d_42", 0, 0, {}]]]}, {"name": "concatenate_8", "class_name": "Concatenate", "config": {"name": "concatenate_8", "trainable": true, "dtype": "float32", "axis": -1}, "inbound_nodes": [[["instance_normalization_12", 0, 0, {}], ["instance_normalization_8", 0, 0, {}]]]}, {"name": "up_sampling2d_11", "class_name": "UpSampling2D", "config": {"name": "up_sampling2d_11", "trainable": true, "dtype": "float32", "size": [2, 2], "data_format": "channels_last", "interpolation": "nearest"}, "inbound_nodes": [[["concatenate_8", 0, 0, {}]]]}, {"name": "conv2d_43", "class_name": "Conv2D", "config": {"name": "conv2d_43", "trainable": true, "dtype": "float32", "filters": 32, "kernel_size": [4, 4], "strides": [1, 1], "padding": "same", "data_format": "channels_last", "dilation_rate": [1, 1], "activation": "relu", "use_bias": true, "kernel_initializer": {"class_name": "VarianceScaling", "config": {"scale": 1.0, "mode": "fan_avg", "distribution": "uniform", "seed": null}}, "bias_initializer": {"class_name": "Zeros", "config": {}}, "kernel_regularizer": null, "bias_regularizer": null, "activity_regularizer": null, "kernel_constraint": null, "bias_constraint": null}, "inbound_nodes": [[["up_sampling2d_11", 0, 0, {}]]]}, {"name": "instance_normalization_13", "class_name": "InstanceNormalization", "config": {"name": "instance_normalization_13", "trainable": true, "dtype": "float32", "axis": null, "epsilon": 0.001, "center": true, "scale": true, "beta_initializer": {"class_name": "Zeros", "config": {}}, "gamma_initializer": {"class_name": "Ones", "config": {}}, "beta_regularizer": null, "gamma_regularizer": null, "beta_constraint": null, "gamma_constraint": null}, "inbound_nodes": [[["conv2d_43", 0, 0, {}]]]}, {"name": "concatenate_9", "class_name": "Concatenate", "config": {"name": "concatenate_9", "trainable": true, "dtype": "float32", "axis": -1}, "inbound_nodes": [[["instance_normalization_13", 0, 0, {}], ["instance_normalization_7", 0, 0, {}]]]}, {"name": "up_sampling2d_12", "class_name": "UpSampling2D", "config": {"name": "up_sampling2d_12", "trainable": true, "dtype": "float32", "size": [2, 2], "data_format": "channels_last", "interpolation": "nearest"}, "inbound_nodes": [[["concatenate_9", 0, 0, {}]]]}, {"name": "conv2d_44", "class_name": "Conv2D", "config": {"name": "conv2d_44", "trainable": true, "dtype": "float32", "filters": 3, "kernel_size": [4, 4], "strides": [1, 1], "padding": "same", "data_format": "channels_last", "dilation_rate": [1, 1], "activation": "tanh", "use_bias": true, "kernel_initializer": {"class_name": "VarianceScaling", "config": {"scale": 1.0, "mode": "fan_avg", "distribution": "uniform", "seed": null}}, "bias_initializer": {"class_name": "Zeros", "config": {}}, "kernel_regularizer": null, "bias_regularizer": null, "activity_regularizer": null, "kernel_constraint": null, "bias_constraint": null}, "inbound_nodes": [[["up_sampling2d_12", 0, 0, {}]]]}], "input_layers": [["input_9", 0, 0]], "output_layers": [["conv2d_44", 0, 0]]}}}, "weightsManifest": [{"paths": ["group1-shard1of1.bin"], "weights": [{"name": "conv2d_37/kernel", "shape": [4, 4, 3, 32], "dtype": "float32", "quantization": {"dtype": "uint8", "min": -0.18992228770957273, "scale": 0.001291988351765801, "original_dtype": "float32"}}, {"name": "conv2d_37/bias", "shape": [32], "dtype": "float32", "quantization": {"dtype": "uint8", "min": -0.031881730200028886, "scale": 0.0002898339109093535, "original_dtype": "float32"}}, {"name": "conv2d_38/kernel", "shape": [4, 4, 32, 64], "dtype": "float32", "quantization": {"dtype": "uint8", "min": -0.10550403992335002, "scale": 0.0007757649994363972, "original_dtype": "float32"}}, {"name": "conv2d_38/bias", "shape": [64], "dtype": "float32", "quantization": {"dtype": "uint8", "min": -0.013187488752837274, "scale": 9.286963910448785e-05, "original_dtype": "float32"}}, {"name": "conv2d_39/kernel", "shape": [4, 4, 64, 128], "dtype": "float32", "quantization": {"dtype": "uint8", "min": -0.08833765180087556, "scale": 0.0007067012144070045, "original_dtype": "float32"}}, {"name": "conv2d_39/bias", "shape": [128], "dtype": "float32", "quantization": {"dtype": "uint8", "min": -0.01290591660083509, "scale": 8.490734605812559e-05, "original_dtype": "float32"}}, {"name": "conv2d_40/kernel", "shape": [4, 4, 128, 256], "dtype": "float32", "quantization": {"dtype": "uint8", "min": -0.0970939584514674, "scale": 0.000741175255354713, "original_dtype": "float32"}}, {"name": "conv2d_40/bias", "shape": [256], "dtype": "float32", "quantization": {"dtype": "uint8", "min": -0.017642225697636606, "scale": 0.00010957904160022736, "original_dtype": "float32"}}, {"name": "conv2d_41/kernel", "shape": [4, 4, 256, 128], "dtype": "float32", "quantization": {"dtype": "uint8", "min": -0.09042096669767417, "scale": 0.0008530279877139073, "original_dtype": "float32"}}, {"name": "conv2d_41/bias", "shape": [128], "dtype": "float32", "quantization": {"dtype": "uint8", "min": -0.02096214524342441, "scale": 0.00010533741328353975, "original_dtype": "float32"}}, {"name": "conv2d_42/kernel", "shape": [4, 4, 256, 64], "dtype": "float32", "quantization": {"dtype": "uint8", "min": -0.11254047865376753, "scale": 0.0008461690124343423, "original_dtype": "float32"}}, {"name": "conv2d_42/bias", "shape": [64], "dtype": "float32", "quantization": {"dtype": "uint8", "min": -0.01536921389474004, "scale": 0.00012101743224204756, "original_dtype": "float32"}}, {"name": "conv2d_43/kernel", "shape": [4, 4, 128, 32], "dtype": "float32", "quantization": {"dtype": "uint8", "min": -0.106895528996692, "scale": 0.0009136369999717264, "original_dtype": "float32"}}, {"name": "conv2d_43/bias", "shape": [32], "dtype": "float32", "quantization": {"dtype": "uint8", "min": -0.009320774426062902, "scale": 0.00010965616971838708, "original_dtype": "float32"}}, {"name": "conv2d_44/kernel", "shape": [4, 4, 64, 3], "dtype": "float32", "quantization": {"dtype": "uint8", "min": -0.08669636232011459, "scale": 0.0007048484741472731, "original_dtype": "float32"}}, {"name": "conv2d_44/bias", "shape": [3], "dtype": "float32", "quantization": {"dtype": "uint8", "min": 0.0028405929915606976, "scale": 1.0849067977830476e-05, "original_dtype": "float32"}}, {"name": "instance_normalization_10/gamma", "shape": [1], "dtype": "float32", "quantization": {"dtype": "uint8", "min": 1.0409166812896729, "scale": 1.0, "original_dtype": "float32"}}, {"name": "instance_normalization_10/beta", "shape": [1], "dtype": "float32", "quantization": {"dtype": "uint8", "min": -0.004088175483047962, "scale": 1.0, "original_dtype": "float32"}}, {"name": "instance_normalization_11/gamma", "shape": [1], "dtype": "float32", "quantization": {"dtype": "uint8", "min": 1.088781714439392, "scale": 1.0, "original_dtype": "float32"}}, {"name": "instance_normalization_11/beta", "shape": [1], "dtype": "float32", "quantization": {"dtype": "uint8", "min": -0.0018723893444985151, "scale": 1.0, "original_dtype": "float32"}}, {"name": "instance_normalization_12/gamma", "shape": [1], "dtype": "float32", "quantization": {"dtype": "uint8", "min": 1.0389858484268188, "scale": 1.0, "original_dtype": "float32"}}, {"name": "instance_normalization_12/beta", "shape": [1], "dtype": "float32", "quantization": {"dtype": "uint8", "min": -0.0030418827664107084, "scale": 1.0, "original_dtype": "float32"}}, {"name": "instance_normalization_13/gamma", "shape": [1], "dtype": "float32", "quantization": {"dtype": "uint8", "min": 0.8932703733444214, "scale": 1.0, "original_dtype": "float32"}}, {"name": "instance_normalization_13/beta", "shape": [1], "dtype": "float32", "quantization": {"dtype": "uint8", "min": 0.05564459413290024, "scale": 1.0, "original_dtype": "float32"}}, {"name": "instance_normalization_7/gamma", "shape": [1], "dtype": "float32", "quantization": {"dtype": "uint8", "min": 0.8977686762809753, "scale": 1.0, "original_dtype": "float32"}}, {"name": "instance_normalization_7/beta", "shape": [1], "dtype": "float32", "quantization": {"dtype": "uint8", "min": 0.016798628494143486, "scale": 1.0, "original_dtype": "float32"}}, {"name": "instance_normalization_8/gamma", "shape": [1], "dtype": "float32", "quantization": {"dtype": "uint8", "min": 0.9600737690925598, "scale": 1.0, "original_dtype": "float32"}}, {"name": "instance_normalization_8/beta", "shape": [1], "dtype": "float32", "quantization": {"dtype": "uint8", "min": 0.0009966774377971888, "scale": 1.0, "original_dtype": "float32"}}, {"name": "instance_normalization_9/gamma", "shape": [1], "dtype": "float32", "quantization": {"dtype": "uint8", "min": 0.9080016016960144, "scale": 1.0, "original_dtype": "float32"}}, {"name": "instance_normalization_9/beta", "shape": [1], "dtype": "float32", "quantization": {"dtype": "uint8", "min": -0.006187779363244772, "scale": 1.0, "original_dtype": "float32"}}]}]}